…
WARNING:tensorflow:From /home/wds/anaconda3/envs/mcn/lib/python3.6/site-packages/keras/backend/tensorflow_backend.py:3080: add_dispatch_support.<locals>.wrapper (from tensorflow.python.ops.array_ops) is deprecated and will be removed in a future version.
Instructions for updating:
Use tf.where in 2.0, which has the same broadcast rule as np.where
__________________________________________________________________________________________________
Layer (type)                    Output Shape         Param #     Connected to
==================================================================================================
input_1 (InputLayer)            (None, 416, 416, 3)  0
__________________________________________________________________________________________________
conv2d_1 (Conv2D)               (None, 416, 416, 32) 864         input_1[0][0]
__________________________________________________________________________________________________
batch_normalization_1 (BatchNor (None, 416, 416, 32) 128         conv2d_1[0][0]
__________________________________________________________________________________________________
leaky_re_lu_1 (LeakyReLU)       (None, 416, 416, 32) 0           batch_normalization_1[0][0]
__________________________________________________________________________________________________
zero_padding2d_1 (ZeroPadding2D (None, 417, 417, 32) 0           leaky_re_lu_1[0][0]
__________________________________________________________________________________________________
conv2d_2 (Conv2D)               (None, 208, 208, 64) 18432       zero_padding2d_1[0][0]
__________________________________________________________________________________________________
batch_normalization_2 (BatchNor (None, 208, 208, 64) 256         conv2d_2[0][0]
__________________________________________________________________________________________________
leaky_re_lu_2 (LeakyReLU)       (None, 208, 208, 64) 0           batch_normalization_2[0][0]
__________________________________________________________________________________________________
conv2d_3 (Conv2D)               (None, 208, 208, 32) 2048        leaky_re_lu_2[0][0]
__________________________________________________________________________________________________
batch_normalization_3 (BatchNor (None, 208, 208, 32) 128         conv2d_3[0][0]
__________________________________________________________________________________________________
leaky_re_lu_3 (LeakyReLU)       (None, 208, 208, 32) 0           batch_normalization_3[0][0]
__________________________________________________________________________________________________
conv2d_4 (Conv2D)               (None, 208, 208, 64) 18432       leaky_re_lu_3[0][0]
__________________________________________________________________________________________________
batch_normalization_4 (BatchNor (None, 208, 208, 64) 256         conv2d_4[0][0]
__________________________________________________________________________________________________
leaky_re_lu_4 (LeakyReLU)       (None, 208, 208, 64) 0           batch_normalization_4[0][0]
__________________________________________________________________________________________________
add_1 (Add)                     (None, 208, 208, 64) 0           leaky_re_lu_2[0][0]
                                                                 leaky_re_lu_4[0][0]
__________________________________________________________________________________________________
zero_padding2d_2 (ZeroPadding2D (None, 209, 209, 64) 0           add_1[0][0]
__________________________________________________________________________________________________
conv2d_5 (Conv2D)               (None, 104, 104, 128 73728       zero_padding2d_2[0][0]
__________________________________________________________________________________________________
batch_normalization_5 (BatchNor (None, 104, 104, 128 512         conv2d_5[0][0]
__________________________________________________________________________________________________
leaky_re_lu_5 (LeakyReLU)       (None, 104, 104, 128 0           batch_normalization_5[0][0]
__________________________________________________________________________________________________
conv2d_6 (Conv2D)               (None, 104, 104, 64) 8192        leaky_re_lu_5[0][0]
__________________________________________________________________________________________________
batch_normalization_6 (BatchNor (None, 104, 104, 64) 256         conv2d_6[0][0]
__________________________________________________________________________________________________
leaky_re_lu_6 (LeakyReLU)       (None, 104, 104, 64) 0           batch_normalization_6[0][0]
__________________________________________________________________________________________________
conv2d_7 (Conv2D)               (None, 104, 104, 128 73728       leaky_re_lu_6[0][0]
__________________________________________________________________________________________________
batch_normalization_7 (BatchNor (None, 104, 104, 128 512         conv2d_7[0][0]
…
leaky_re_lu_9 (LeakyReLU)       (None, 104, 104, 128 0           batch_normalization_9[0][0]
__________________________________________________________________________________________________
add_3 (Add)                     (None, 104, 104, 128 0           add_2[0][0]
                                                                 leaky_re_lu_9[0][0]
__________________________________________________________________________________________________
zero_padding2d_3 (ZeroPadding2D (None, 105, 105, 128 0           add_3[0][0]
__________________________________________________________________________________________________
conv2d_10 (Conv2D)              (None, 52, 52, 256)  294912      zero_padding2d_3[0][0]
__________________________________________________________________________________________________
batch_normalization_10 (BatchNo (None, 52, 52, 256)  1024        conv2d_10[0][0]
__________________________________________________________________________________________________
leaky_re_lu_10 (LeakyReLU)      (None, 52, 52, 256)  0           batch_normalization_10[0][0]
__________________________________________________________________________________________________
conv2d_11 (Conv2D)              (None, 52, 52, 128)  32768       leaky_re_lu_10[0][0]
__________________________________________________________________________________________________
batch_normalization_11 (BatchNo (None, 52, 52, 128)  512         conv2d_11[0][0]
__________________________________________________________________________________________________
leaky_re_lu_11 (LeakyReLU)      (None, 52, 52, 128)  0           batch_normalization_11[0][0]
__________________________________________________________________________________________________
conv2d_12 (Conv2D)              (None, 52, 52, 256)  294912      leaky_re_lu_11[0][0]
__________________________________________________________________________________________________
batch_normalization_12 (BatchNo (None, 52, 52, 256)  1024        conv2d_12[0][0]
__________________________________________________________________________________________________
leaky_re_lu_12 (LeakyReLU)      (None, 52, 52, 256)  0           batch_normalization_12[0][0]
__________________________________________________________________________________________________
add_4 (Add)                     (None, 52, 52, 256)  0           leaky_re_lu_10[0][0]
                                                                 leaky_re_lu_12[0][0]
__________________________________________________________________________________________________
conv2d_13 (Conv2D)              (None, 52, 52, 128)  32768       add_4[0][0]
__________________________________________________________________________________________________
batch_normalization_13 (BatchNo (None, 52, 52, 128)  512         conv2d_13[0][0]
__________________________________________________________________________________________________
leaky_re_lu_13 (LeakyReLU)      (None, 52, 52, 128)  0           batch_normalization_13[0][0]
__________________________________________________________________________________________________
conv2d_14 (Conv2D)              (None, 52, 52, 256)  294912      leaky_re_lu_13[0][0]
__________________________________________________________________________________________________
batch_normalization_14 (BatchNo (None, 52, 52, 256)  1024        conv2d_14[0][0]
__________________________________________________________________________________________________
leaky_re_lu_14 (LeakyReLU)      (None, 52, 52, 256)  0           batch_normalization_14[0][0]
__________________________________________________________________________________________________
add_5 (Add)                     (None, 52, 52, 256)  0           add_4[0][0]
                                                                 leaky_re_lu_14[0][0]
__________________________________________________________________________________________________
conv2d_15 (Conv2D)              (None, 52, 52, 128)  32768       add_5[0][0]
__________________________________________________________________________________________________
batch_normalization_15 (BatchNo (None, 52, 52, 128)  512         conv2d_15[0][0]
__________________________________________________________________________________________________
leaky_re_lu_15 (LeakyReLU)      (None, 52, 52, 128)  0           batch_normalization_15[0][0]
__________________________________________________________________________________________________
conv2d_16 (Conv2D)              (None, 52, 52, 256)  294912      leaky_re_lu_15[0][0]
__________________________________________________________________________________________________
batch_normalization_16 (BatchNo (None, 52, 52, 256)  1024        conv2d_16[0][0]
__________________________________________________________________________________________________
leaky_re_lu_16 (LeakyReLU)      (None, 52, 52, 256)  0           batch_normalization_16[0][0]
__________________________________________________________________________________________________
add_6 (Add)                     (None, 52, 52, 256)  0           add_5[0][0]
                                                                 leaky_re_lu_16[0][0]
__________________________________________________________________________________________________
conv2d_17 (Conv2D)              (None, 52, 52, 128)  32768       add_6[0][0]
__________________________________________________________________________________________________
batch_normalization_17 (BatchNo (None, 52, 52, 128)  512         conv2d_17[0][0]
__________________________________________________________________________________________________
leaky_re_lu_17 (LeakyReLU)      (None, 52, 52, 128)  0           batch_normalization_17[0][0]
__________________________________________________________________________________________________
conv2d_18 (Conv2D)              (None, 52, 52, 256)  294912      leaky_re_lu_17[0][0]
__________________________________________________________________________________________________
batch_normalization_18 (BatchNo (None, 52, 52, 256)  1024        conv2d_18[0][0]
__________________________________________________________________________________________________
leaky_re_lu_18 (LeakyReLU)      (None, 52, 52, 256)  0           batch_normalization_18[0][0]
__________________________________________________________________________________________________
add_7 (Add)                     (None, 52, 52, 256)  0           add_6[0][0]
                                                                 leaky_re_lu_18[0][0]
__________________________________________________________________________________________________
conv2d_19 (Conv2D)              (None, 52, 52, 128)  32768       add_7[0][0]
__________________________________________________________________________________________________
batch_normalization_19 (BatchNo (None, 52, 52, 128)  512         conv2d_19[0][0]
__________________________________________________________________________________________________
leaky_re_lu_19 (LeakyReLU)      (None, 52, 52, 128)  0           batch_normalization_19[0][0]
__________________________________________________________________________________________________
conv2d_20 (Conv2D)              (None, 52, 52, 256)  294912      leaky_re_lu_19[0][0]
__________________________________________________________________________________________________
batch_normalization_20 (BatchNo (None, 52, 52, 256)  1024        conv2d_20[0][0]
__________________________________________________________________________________________________
leaky_re_lu_20 (LeakyReLU)      (None, 52, 52, 256)  0           batch_normalization_20[0][0]
__________________________________________________________________________________________________
add_8 (Add)                     (None, 52, 52, 256)  0           add_7[0][0]
                                                                 leaky_re_lu_20[0][0]
__________________________________________________________________________________________________
conv2d_21 (Conv2D)              (None, 52, 52, 128)  32768       add_8[0][0]
__________________________________________________________________________________________________
batch_normalization_21 (BatchNo (None, 52, 52, 128)  512         conv2d_21[0][0]
__________________________________________________________________________________________________
leaky_re_lu_21 (LeakyReLU)      (None, 52, 52, 128)  0           batch_normalization_21[0][0]
__________________________________________________________________________________________________
conv2d_22 (Conv2D)              (None, 52, 52, 256)  294912      leaky_re_lu_21[0][0]
__________________________________________________________________________________________________
batch_normalization_22 (BatchNo (None, 52, 52, 256)  1024        conv2d_22[0][0]
__________________________________________________________________________________________________
leaky_re_lu_22 (LeakyReLU)      (None, 52, 52, 256)  0           batch_normalization_22[0][0]
__________________________________________________________________________________________________
add_9 (Add)                     (None, 52, 52, 256)  0           add_8[0][0]
                                                                 leaky_re_lu_22[0][0]
__________________________________________________________________________________________________
conv2d_23 (Conv2D)              (None, 52, 52, 128)  32768       add_9[0][0]
__________________________________________________________________________________________________
batch_normalization_23 (BatchNo (None, 52, 52, 128)  512         conv2d_23[0][0]
__________________________________________________________________________________________________
leaky_re_lu_23 (LeakyReLU)      (None, 52, 52, 128)  0           batch_normalization_23[0][0]
__________________________________________________________________________________________________
conv2d_24 (Conv2D)              (None, 52, 52, 256)  294912      leaky_re_lu_23[0][0]
__________________________________________________________________________________________________
batch_normalization_24 (BatchNo (None, 52, 52, 256)  1024        conv2d_24[0][0]
__________________________________________________________________________________________________
leaky_re_lu_24 (LeakyReLU)      (None, 52, 52, 256)  0           batch_normalization_24[0][0]
__________________________________________________________________________________________________
add_10 (Add)                    (None, 52, 52, 256)  0           add_9[0][0]
                                                                 leaky_re_lu_24[0][0]
__________________________________________________________________________________________________
conv2d_25 (Conv2D)              (None, 52, 52, 128)  32768       add_10[0][0]
__________________________________________________________________________________________________
batch_normalization_25 (BatchNo (None, 52, 52, 128)  512         conv2d_25[0][0]
__________________________________________________________________________________________________
leaky_re_lu_25 (LeakyReLU)      (None, 52, 52, 128)  0           batch_normalization_25[0][0]
__________________________________________________________________________________________________
conv2d_26 (Conv2D)              (None, 52, 52, 256)  294912      leaky_re_lu_25[0][0]
__________________________________________________________________________________________________
batch_normalization_26 (BatchNo (None, 52, 52, 256)  1024        conv2d_26[0][0]
__________________________________________________________________________________________________
leaky_re_lu_26 (LeakyReLU)      (None, 52, 52, 256)  0           batch_normalization_26[0][0]
__________________________________________________________________________________________________
add_11 (Add)                    (None, 52, 52, 256)  0           add_10[0][0]
                                                                 leaky_re_lu_26[0][0]
__________________________________________________________________________________________________
zero_padding2d_4 (ZeroPadding2D (None, 53, 53, 256)  0           add_11[0][0]
__________________________________________________________________________________________________
conv2d_27 (Conv2D)              (None, 26, 26, 512)  1179648     zero_padding2d_4[0][0]
__________________________________________________________________________________________________
batch_normalization_27 (BatchNo (None, 26, 26, 512)  2048        conv2d_27[0][0]
__________________________________________________________________________________________________
leaky_re_lu_27 (LeakyReLU)      (None, 26, 26, 512)  0           batch_normalization_27[0][0]
__________________________________________________________________________________________________
conv2d_28 (Conv2D)              (None, 26, 26, 256)  131072      leaky_re_lu_27[0][0]
__________________________________________________________________________________________________
batch_normalization_28 (BatchNo (None, 26, 26, 256)  1024        conv2d_28[0][0]
__________________________________________________________________________________________________
leaky_re_lu_28 (LeakyReLU)      (None, 26, 26, 256)  0           batch_normalization_28[0][0]
__________________________________________________________________________________________________
conv2d_29 (Conv2D)              (None, 26, 26, 512)  1179648     leaky_re_lu_28[0][0]
__________________________________________________________________________________________________
batch_normalization_29 (BatchNo (None, 26, 26, 512)  2048        conv2d_29[0][0]
__________________________________________________________________________________________________
leaky_re_lu_29 (LeakyReLU)      (None, 26, 26, 512)  0           batch_normalization_29[0][0]
__________________________________________________________________________________________________
add_12 (Add)                    (None, 26, 26, 512)  0           leaky_re_lu_27[0][0]
                                                                 leaky_re_lu_29[0][0]
__________________________________________________________________________________________________
conv2d_30 (Conv2D)              (None, 26, 26, 256)  131072      add_12[0][0]
__________________________________________________________________________________________________
batch_normalization_30 (BatchNo (None, 26, 26, 256)  1024        conv2d_30[0][0]
__________________________________________________________________________________________________
leaky_re_lu_30 (LeakyReLU)      (None, 26, 26, 256)  0           batch_normalization_30[0][0]
__________________________________________________________________________________________________
conv2d_31 (Conv2D)              (None, 26, 26, 512)  1179648     leaky_re_lu_30[0][0]
__________________________________________________________________________________________________
batch_normalization_31 (BatchNo (None, 26, 26, 512)  2048        conv2d_31[0][0]
__________________________________________________________________________________________________
leaky_re_lu_31 (LeakyReLU)      (None, 26, 26, 512)  0           batch_normalization_31[0][0]
__________________________________________________________________________________________________
add_13 (Add)                    (None, 26, 26, 512)  0           add_12[0][0]
                                                                 leaky_re_lu_31[0][0]
__________________________________________________________________________________________________
conv2d_32 (Conv2D)              (None, 26, 26, 256)  131072      add_13[0][0]
__________________________________________________________________________________________________
batch_normalization_32 (BatchNo (None, 26, 26, 256)  1024        conv2d_32[0][0]
__________________________________________________________________________________________________
leaky_re_lu_32 (LeakyReLU)      (None, 26, 26, 256)  0           batch_normalization_32[0][0]
__________________________________________________________________________________________________
conv2d_33 (Conv2D)              (None, 26, 26, 512)  1179648     leaky_re_lu_32[0][0]
__________________________________________________________________________________________________
batch_normalization_33 (BatchNo (None, 26, 26, 512)  2048        conv2d_33[0][0]
__________________________________________________________________________________________________
leaky_re_lu_33 (LeakyReLU)      (None, 26, 26, 512)  0           batch_normalization_33[0][0]
__________________________________________________________________________________________________
add_14 (Add)                    (None, 26, 26, 512)  0           add_13[0][0]
                                                                 leaky_re_lu_33[0][0]
__________________________________________________________________________________________________
conv2d_34 (Conv2D)              (None, 26, 26, 256)  131072      add_14[0][0]
__________________________________________________________________________________________________
batch_normalization_34 (BatchNo (None, 26, 26, 256)  1024        conv2d_34[0][0]
__________________________________________________________________________________________________
leaky_re_lu_34 (LeakyReLU)      (None, 26, 26, 256)  0           batch_normalization_34[0][0]
__________________________________________________________________________________________________
conv2d_35 (Conv2D)              (None, 26, 26, 512)  1179648     leaky_re_lu_34[0][0]
__________________________________________________________________________________________________
batch_normalization_35 (BatchNo (None, 26, 26, 512)  2048        conv2d_35[0][0]
__________________________________________________________________________________________________
leaky_re_lu_35 (LeakyReLU)      (None, 26, 26, 512)  0           batch_normalization_35[0][0]
__________________________________________________________________________________________________
add_15 (Add)                    (None, 26, 26, 512)  0           add_14[0][0]
                                                                 leaky_re_lu_35[0][0]
__________________________________________________________________________________________________
conv2d_36 (Conv2D)              (None, 26, 26, 256)  131072      add_15[0][0]
__________________________________________________________________________________________________
batch_normalization_36 (BatchNo (None, 26, 26, 256)  1024        conv2d_36[0][0]
__________________________________________________________________________________________________
leaky_re_lu_36 (LeakyReLU)      (None, 26, 26, 256)  0           batch_normalization_36[0][0]
__________________________________________________________________________________________________
conv2d_37 (Conv2D)              (None, 26, 26, 512)  1179648     leaky_re_lu_36[0][0]
__________________________________________________________________________________________________
batch_normalization_37 (BatchNo (None, 26, 26, 512)  2048        conv2d_37[0][0]
__________________________________________________________________________________________________
leaky_re_lu_37 (LeakyReLU)      (None, 26, 26, 512)  0           batch_normalization_37[0][0]
__________________________________________________________________________________________________
add_16 (Add)                    (None, 26, 26, 512)  0           add_15[0][0]
                                                                 leaky_re_lu_37[0][0]
__________________________________________________________________________________________________
conv2d_38 (Conv2D)              (None, 26, 26, 256)  131072      add_16[0][0]
__________________________________________________________________________________________________
batch_normalization_38 (BatchNo (None, 26, 26, 256)  1024        conv2d_38[0][0]
__________________________________________________________________________________________________
leaky_re_lu_38 (LeakyReLU)      (None, 26, 26, 256)  0           batch_normalization_38[0][0]
__________________________________________________________________________________________________
conv2d_39 (Conv2D)              (None, 26, 26, 512)  1179648     leaky_re_lu_38[0][0]
__________________________________________________________________________________________________
batch_normalization_39 (BatchNo (None, 26, 26, 512)  2048        conv2d_39[0][0]
__________________________________________________________________________________________________
leaky_re_lu_39 (LeakyReLU)      (None, 26, 26, 512)  0           batch_normalization_39[0][0]
__________________________________________________________________________________________________
add_17 (Add)                    (None, 26, 26, 512)  0           add_16[0][0]
                                                                 leaky_re_lu_39[0][0]
__________________________________________________________________________________________________
conv2d_40 (Conv2D)              (None, 26, 26, 256)  131072      add_17[0][0]
__________________________________________________________________________________________________
batch_normalization_40 (BatchNo (None, 26, 26, 256)  1024        conv2d_40[0][0]
__________________________________________________________________________________________________
leaky_re_lu_40 (LeakyReLU)      (None, 26, 26, 256)  0           batch_normalization_40[0][0]
__________________________________________________________________________________________________
conv2d_41 (Conv2D)              (None, 26, 26, 512)  1179648     leaky_re_lu_40[0][0]
__________________________________________________________________________________________________
batch_normalization_41 (BatchNo (None, 26, 26, 512)  2048        conv2d_41[0][0]
__________________________________________________________________________________________________
leaky_re_lu_41 (LeakyReLU)      (None, 26, 26, 512)  0           batch_normalization_41[0][0]
__________________________________________________________________________________________________
add_18 (Add)                    (None, 26, 26, 512)  0           add_17[0][0]
                                                                 leaky_re_lu_41[0][0]
__________________________________________________________________________________________________
conv2d_42 (Conv2D)              (None, 26, 26, 256)  131072      add_18[0][0]
__________________________________________________________________________________________________
batch_normalization_42 (BatchNo (None, 26, 26, 256)  1024        conv2d_42[0][0]
__________________________________________________________________________________________________
leaky_re_lu_42 (LeakyReLU)      (None, 26, 26, 256)  0           batch_normalization_42[0][0]
__________________________________________________________________________________________________
conv2d_43 (Conv2D)              (None, 26, 26, 512)  1179648     leaky_re_lu_42[0][0]
__________________________________________________________________________________________________
batch_normalization_43 (BatchNo (None, 26, 26, 512)  2048        conv2d_43[0][0]
__________________________________________________________________________________________________
leaky_re_lu_43 (LeakyReLU)      (None, 26, 26, 512)  0           batch_normalization_43[0][0]
__________________________________________________________________________________________________
add_19 (Add)                    (None, 26, 26, 512)  0           add_18[0][0]
                                                                 leaky_re_lu_43[0][0]
__________________________________________________________________________________________________
zero_padding2d_5 (ZeroPadding2D (None, 27, 27, 512)  0           add_19[0][0]
__________________________________________________________________________________________________
conv2d_44 (Conv2D)              (None, 13, 13, 1024) 4718592     zero_padding2d_5[0][0]
__________________________________________________________________________________________________
batch_normalization_44 (BatchNo (None, 13, 13, 1024) 4096        conv2d_44[0][0]
__________________________________________________________________________________________________
leaky_re_lu_44 (LeakyReLU)      (None, 13, 13, 1024) 0           batch_normalization_44[0][0]
__________________________________________________________________________________________________
conv2d_45 (Conv2D)              (None, 13, 13, 512)  524288      leaky_re_lu_44[0][0]
__________________________________________________________________________________________________
batch_normalization_45 (BatchNo (None, 13, 13, 512)  2048        conv2d_45[0][0]
__________________________________________________________________________________________________
leaky_re_lu_45 (LeakyReLU)      (None, 13, 13, 512)  0           batch_normalization_45[0][0]
__________________________________________________________________________________________________
conv2d_46 (Conv2D)              (None, 13, 13, 1024) 4718592     leaky_re_lu_45[0][0]
__________________________________________________________________________________________________
batch_normalization_46 (BatchNo (None, 13, 13, 1024) 4096        conv2d_46[0][0]
__________________________________________________________________________________________________
leaky_re_lu_46 (LeakyReLU)      (None, 13, 13, 1024) 0           batch_normalization_46[0][0]
__________________________________________________________________________________________________
add_20 (Add)                    (None, 13, 13, 1024) 0           leaky_re_lu_44[0][0]
                                                                 leaky_re_lu_46[0][0]
__________________________________________________________________________________________________
conv2d_47 (Conv2D)              (None, 13, 13, 512)  524288      add_20[0][0]
__________________________________________________________________________________________________
batch_normalization_47 (BatchNo (None, 13, 13, 512)  2048        conv2d_47[0][0]
__________________________________________________________________________________________________
leaky_re_lu_47 (LeakyReLU)      (None, 13, 13, 512)  0           batch_normalization_47[0][0]
__________________________________________________________________________________________________
conv2d_48 (Conv2D)              (None, 13, 13, 1024) 4718592     leaky_re_lu_47[0][0]
__________________________________________________________________________________________________
batch_normalization_48 (BatchNo (None, 13, 13, 1024) 4096        conv2d_48[0][0]
__________________________________________________________________________________________________
leaky_re_lu_48 (LeakyReLU)      (None, 13, 13, 1024) 0           batch_normalization_48[0][0]
__________________________________________________________________________________________________
add_21 (Add)                    (None, 13, 13, 1024) 0           add_20[0][0]
                                                                 leaky_re_lu_48[0][0]
__________________________________________________________________________________________________
conv2d_49 (Conv2D)              (None, 13, 13, 512)  524288      add_21[0][0]
__________________________________________________________________________________________________
batch_normalization_49 (BatchNo (None, 13, 13, 512)  2048        conv2d_49[0][0]
__________________________________________________________________________________________________
leaky_re_lu_49 (LeakyReLU)      (None, 13, 13, 512)  0           batch_normalization_49[0][0]
__________________________________________________________________________________________________
conv2d_50 (Conv2D)              (None, 13, 13, 1024) 4718592     leaky_re_lu_49[0][0]
__________________________________________________________________________________________________
batch_normalization_50 (BatchNo (None, 13, 13, 1024) 4096        conv2d_50[0][0]
__________________________________________________________________________________________________
leaky_re_lu_50 (LeakyReLU)      (None, 13, 13, 1024) 0           batch_normalization_50[0][0]
__________________________________________________________________________________________________
add_22 (Add)                    (None, 13, 13, 1024) 0           add_21[0][0]
                                                                 leaky_re_lu_50[0][0]
__________________________________________________________________________________________________
conv2d_51 (Conv2D)              (None, 13, 13, 512)  524288      add_22[0][0]
__________________________________________________________________________________________________
batch_normalization_51 (BatchNo (None, 13, 13, 512)  2048        conv2d_51[0][0]
__________________________________________________________________________________________________
leaky_re_lu_51 (LeakyReLU)      (None, 13, 13, 512)  0           batch_normalization_51[0][0]
__________________________________________________________________________________________________
conv2d_52 (Conv2D)              (None, 13, 13, 1024) 4718592     leaky_re_lu_51[0][0]
__________________________________________________________________________________________________
batch_normalization_52 (BatchNo (None, 13, 13, 1024) 4096        conv2d_52[0][0]
__________________________________________________________________________________________________
leaky_re_lu_52 (LeakyReLU)      (None, 13, 13, 1024) 0           batch_normalization_52[0][0]
__________________________________________________________________________________________________
add_23 (Add)                    (None, 13, 13, 1024) 0           add_22[0][0]
                                                                 leaky_re_lu_52[0][0]
__________________________________________________________________________________________________
conv2d_53 (Conv2D)              (None, 13, 13, 512)  524288      add_23[0][0]
__________________________________________________________________________________________________
batch_normalization_53 (BatchNo (None, 13, 13, 512)  2048        conv2d_53[0][0]
__________________________________________________________________________________________________
leaky_re_lu_53 (LeakyReLU)      (None, 13, 13, 512)  0           batch_normalization_53[0][0]
__________________________________________________________________________________________________
conv2d_54 (Conv2D)              (None, 13, 13, 1024) 4718592     leaky_re_lu_53[0][0]
__________________________________________________________________________________________________
batch_normalization_54 (BatchNo (None, 13, 13, 1024) 4096        conv2d_54[0][0]
__________________________________________________________________________________________________
leaky_re_lu_54 (LeakyReLU)      (None, 13, 13, 1024) 0           batch_normalization_54[0][0]
__________________________________________________________________________________________________
conv2d_55 (Conv2D)              (None, 13, 13, 512)  524288      leaky_re_lu_54[0][0]
__________________________________________________________________________________________________
batch_normalization_55 (BatchNo (None, 13, 13, 512)  2048        conv2d_55[0][0]
__________________________________________________________________________________________________
leaky_re_lu_55 (LeakyReLU)      (None, 13, 13, 512)  0           batch_normalization_55[0][0]
__________________________________________________________________________________________________
conv2d_56 (Conv2D)              (None, 13, 13, 1024) 4718592     leaky_re_lu_55[0][0]
__________________________________________________________________________________________________
batch_normalization_56 (BatchNo (None, 13, 13, 1024) 4096        conv2d_56[0][0]
__________________________________________________________________________________________________
leaky_re_lu_56 (LeakyReLU)      (None, 13, 13, 1024) 0           batch_normalization_56[0][0]
__________________________________________________________________________________________________
conv2d_57 (Conv2D)              (None, 13, 13, 512)  524288      leaky_re_lu_56[0][0]
__________________________________________________________________________________________________
batch_normalization_57 (BatchNo (None, 13, 13, 512)  2048        conv2d_57[0][0]
__________________________________________________________________________________________________
leaky_re_lu_57 (LeakyReLU)      (None, 13, 13, 512)  0           batch_normalization_57[0][0]
__________________________________________________________________________________________________
q_input (InputLayer)            (None, 15, 300)      0
__________________________________________________________________________________________________
conv2d_58 (Conv2D)              (None, 13, 13, 1024) 4718592     leaky_re_lu_57[0][0]
__________________________________________________________________________________________________
bidirectional_1 (Bidirectional) (None, 15, 1024)     8140800     q_input[0][0]
__________________________________________________________________________________________________
batch_normalization_58 (BatchNo (None, 13, 13, 1024) 4096        conv2d_58[0][0]
__________________________________________________________________________________________________
dense_1 (Dense)                 (None, 15, 1024)     1049600     bidirectional_1[0][0]
__________________________________________________________________________________________________
leaky_re_lu_58 (LeakyReLU)      (None, 13, 13, 1024) 0           batch_normalization_58[0][0]
__________________________________________________________________________________________________
dropout_1 (Dropout)             (None, 15, 1024)     0           dense_1[0][0]
__________________________________________________________________________________________________
conv2d_59 (Conv2D)              (None, 13, 13, 512)  524288      leaky_re_lu_58[0][0]
__________________________________________________________________________________________________
lambda_1 (Lambda)               (None, 15, 1024)     0           dropout_1[0][0]
__________________________________________________________________________________________________
batch_normalization_59 (BatchNo (None, 13, 13, 512)  2048        conv2d_59[0][0]
__________________________________________________________________________________________________
multiply_1 (Multiply)           (None, 15, 1024)     0           bidirectional_1[0][0]
                                                                 lambda_1[0][0]
__________________________________________________________________________________________________
leaky_re_lu_59 (LeakyReLU)      (None, 13, 13, 512)  0           batch_normalization_59[0][0]
__________________________________________________________________________________________________
lambda_2 (Lambda)               (None, 1024)         0           multiply_1[0][0]
__________________________________________________________________________________________________
conv2d_60 (Conv2D)              (None, 13, 13, 1024) 4718592     leaky_re_lu_59[0][0]
__________________________________________________________________________________________________
dense_2 (Dense)                 (None, 1024)         1049600     lambda_2[0][0]
__________________________________________________________________________________________________
batch_normalization_60 (BatchNo (None, 13, 13, 1024) 4096        conv2d_60[0][0]
__________________________________________________________________________________________________
batch_normalization_61 (BatchNo (None, 1024)         4096        dense_2[0][0]
__________________________________________________________________________________________________
leaky_re_lu_60 (LeakyReLU)      (None, 13, 13, 1024) 0           batch_normalization_60[0][0]
__________________________________________________________________________________________________
leaky_re_lu_61 (LeakyReLU)      (None, 1024)         0           batch_normalization_61[0][0]
__________________________________________________________________________________________________
add_24 (Add)                    (None, 13, 13, 1024) 0           leaky_re_lu_58[0][0]
                                                                 leaky_re_lu_60[0][0]
__________________________________________________________________________________________________
lambda_3 (Lambda)               (None, 13, 13, 1024) 0           leaky_re_lu_61[0][0]
__________________________________________________________________________________________________
multiply_2 (Multiply)           (None, 13, 13, 1024) 0           add_24[0][0]
                                                                 lambda_3[0][0]
__________________________________________________________________________________________________
batch_normalization_62 (BatchNo (None, 13, 13, 1024) 4096        multiply_2[0][0]
__________________________________________________________________________________________________
conv2d_61 (Conv2D)              (None, 26, 26, 512)  262144      add_19[0][0]
__________________________________________________________________________________________________
leaky_re_lu_62 (LeakyReLU)      (None, 13, 13, 1024) 0           batch_normalization_62[0][0]
__________________________________________________________________________________________________
batch_normalization_63 (BatchNo (None, 26, 26, 512)  2048        conv2d_61[0][0]
__________________________________________________________________________________________________
up_sampling2d_1 (UpSampling2D)  (None, 26, 26, 1024) 0           leaky_re_lu_62[0][0]
__________________________________________________________________________________________________
leaky_re_lu_63 (LeakyReLU)      (None, 26, 26, 512)  0           batch_normalization_63[0][0]
__________________________________________________________________________________________________
concatenate_1 (Concatenate)     (None, 26, 26, 1536) 0           up_sampling2d_1[0][0]
                                                                 leaky_re_lu_63[0][0]
__________________________________________________________________________________________________
conv2d_62 (Conv2D)              (None, 26, 26, 512)  786432      concatenate_1[0][0]
__________________________________________________________________________________________________
batch_normalization_64 (BatchNo (None, 26, 26, 512)  2048        conv2d_62[0][0]
__________________________________________________________________________________________________
conv2d_63 (Conv2D)              (None, 52, 52, 256)  65536       add_11[0][0]
__________________________________________________________________________________________________
leaky_re_lu_64 (LeakyReLU)      (None, 26, 26, 512)  0           batch_normalization_64[0][0]
__________________________________________________________________________________________________
batch_normalization_65 (BatchNo (None, 52, 52, 256)  1024        conv2d_63[0][0]
__________________________________________________________________________________________________
up_sampling2d_2 (UpSampling2D)  (None, 52, 52, 512)  0           leaky_re_lu_64[0][0]
__________________________________________________________________________________________________
leaky_re_lu_65 (LeakyReLU)      (None, 52, 52, 256)  0           batch_normalization_65[0][0]
__________________________________________________________________________________________________
concatenate_2 (Concatenate)     (None, 52, 52, 768)  0           up_sampling2d_2[0][0]
                                                                 leaky_re_lu_65[0][0]
__________________________________________________________________________________________________
conv2d_64 (Conv2D)              (None, 52, 52, 512)  393216      concatenate_2[0][0]
__________________________________________________________________________________________________
batch_normalization_66 (BatchNo (None, 52, 52, 512)  2048        conv2d_64[0][0]
__________________________________________________________________________________________________
leaky_re_lu_66 (LeakyReLU)      (None, 52, 52, 512)  0           batch_normalization_66[0][0]
__________________________________________________________________________________________________
lambda_4 (Lambda)               (None, 1, 1024)      0           lambda_2[0][0]
__________________________________________________________________________________________________
lambda_5 (Lambda)               (None, 52, 52, 256)  0           leaky_re_lu_66[0][0]
__________________________________________________________________________________________________
lambda_6 (Lambda)               (None, 1, 512)       0           lambda_4[0][0]
__________________________________________________________________________________________________
reshape_1 (Reshape)             (None, 2704, 256)    0           lambda_5[0][0]
__________________________________________________________________________________________________
dense_6 (Dense)                 (None, 1, 256)       131328      lambda_6[0][0]
__________________________________________________________________________________________________
lambda_7 (Lambda)               (None, 256, 1)       0           dense_6[0][0]
__________________________________________________________________________________________________
dense_3 (Dense)                 (None, 2704, 256)    65792       reshape_1[0][0]
__________________________________________________________________________________________________
dot_1 (Dot)                     (None, 2704, 1)      0           dense_3[0][0]
                                                                 lambda_7[0][0]
__________________________________________________________________________________________________
dense_5 (Dense)                 (None, 2704, 256)    65792       reshape_1[0][0]
__________________________________________________________________________________________________
lambda_8 (Lambda)               (None, 2704, 1)      0           dot_1[0][0]
__________________________________________________________________________________________________
dot_2 (Dot)                     (None, 2704, 1)      0           dense_5[0][0]
                                                                 lambda_7[0][0]
__________________________________________________________________________________________________
lambda_9 (Lambda)               (None, 1, 2704)      0           lambda_8[0][0]
__________________________________________________________________________________________________
lambda_10 (Lambda)              (None, 2704, 1)      0           dot_2[0][0]
__________________________________________________________________________________________________
activation_1 (Activation)       (None, 1, 2704)      0           lambda_9[0][0]
__________________________________________________________________________________________________
dense_4 (Dense)                 (None, 2704, 256)    65792       reshape_1[0][0]
__________________________________________________________________________________________________
activation_2 (Activation)       (None, 2704, 1)      0           lambda_10[0][0]
__________________________________________________________________________________________________
dot_3 (Dot)                     (None, 1, 256)       0           activation_1[0][0]
                                                                 dense_4[0][0]
__________________________________________________________________________________________________
dot_4 (Dot)                     (None, 2704, 256)    0           activation_2[0][0]
                                                                 dot_3[0][0]
__________________________________________________________________________________________________
reshape_2 (Reshape)             (None, 52, 52, 256)  0           dot_4[0][0]
__________________________________________________________________________________________________
lambda_11 (Lambda)              (None, 52, 52, 512)  0           reshape_2[0][0]
__________________________________________________________________________________________________
add_25 (Add)                    (None, 52, 52, 512)  0           lambda_11[0][0]
                                                                 leaky_re_lu_66[0][0]
__________________________________________________________________________________________________
batch_normalization_67 (BatchNo (None, 52, 52, 512)  2048        add_25[0][0]
__________________________________________________________________________________________________
leaky_re_lu_67 (LeakyReLU)      (None, 52, 52, 512)  0           batch_normalization_67[0][0]
__________________________________________________________________________________________________
average_pooling2d_1 (AveragePoo (None, 26, 26, 512)  0           leaky_re_lu_67[0][0]
__________________________________________________________________________________________________
conv2d_71 (Conv2D)              (None, 26, 26, 256)  131072      average_pooling2d_1[0][0]
__________________________________________________________________________________________________
batch_normalization_73 (BatchNo (None, 26, 26, 256)  1024        conv2d_71[0][0]
__________________________________________________________________________________________________
leaky_re_lu_73 (LeakyReLU)      (None, 26, 26, 256)  0           batch_normalization_73[0][0]
__________________________________________________________________________________________________
conv2d_72 (Conv2D)              (None, 26, 26, 512)  1179648     leaky_re_lu_73[0][0]
__________________________________________________________________________________________________
batch_normalization_74 (BatchNo (None, 26, 26, 512)  2048        conv2d_72[0][0]
__________________________________________________________________________________________________
leaky_re_lu_74 (LeakyReLU)      (None, 26, 26, 512)  0           batch_normalization_74[0][0]
__________________________________________________________________________________________________
concatenate_4 (Concatenate)     (None, 26, 26, 1024) 0           leaky_re_lu_74[0][0]
                                                                 leaky_re_lu_64[0][0]
__________________________________________________________________________________________________
conv2d_73 (Conv2D)              (None, 26, 26, 512)  524288      concatenate_4[0][0]
__________________________________________________________________________________________________
batch_normalization_75 (BatchNo (None, 26, 26, 512)  2048        conv2d_73[0][0]
__________________________________________________________________________________________________
leaky_re_lu_75 (LeakyReLU)      (None, 26, 26, 512)  0           batch_normalization_75[0][0]
__________________________________________________________________________________________________
average_pooling2d_2 (AveragePoo (None, 13, 13, 512)  0           leaky_re_lu_75[0][0]
__________________________________________________________________________________________________
conv2d_74 (Conv2D)              (None, 13, 13, 256)  131072      average_pooling2d_2[0][0]
__________________________________________________________________________________________________
batch_normalization_76 (BatchNo (None, 13, 13, 256)  1024        conv2d_74[0][0]
__________________________________________________________________________________________________
leaky_re_lu_76 (LeakyReLU)      (None, 13, 13, 256)  0           batch_normalization_76[0][0]
__________________________________________________________________________________________________
conv2d_75 (Conv2D)              (None, 13, 13, 512)  1179648     leaky_re_lu_76[0][0]
__________________________________________________________________________________________________
batch_normalization_77 (BatchNo (None, 13, 13, 512)  2048        conv2d_75[0][0]
__________________________________________________________________________________________________
leaky_re_lu_77 (LeakyReLU)      (None, 13, 13, 512)  0           batch_normalization_77[0][0]
__________________________________________________________________________________________________
concatenate_5 (Concatenate)     (None, 13, 13, 1536) 0           leaky_re_lu_77[0][0]
                                                                 leaky_re_lu_62[0][0]
__________________________________________________________________________________________________
conv2d_76 (Conv2D)              (None, 13, 13, 512)  786432      concatenate_5[0][0]
__________________________________________________________________________________________________
batch_normalization_78 (BatchNo (None, 13, 13, 512)  2048        conv2d_76[0][0]
__________________________________________________________________________________________________
leaky_re_lu_78 (LeakyReLU)      (None, 13, 13, 512)  0           batch_normalization_78[0][0]
__________________________________________________________________________________________________
lambda_17 (Lambda)              (None, 1, 1024)      0           lambda_2[0][0]
__________________________________________________________________________________________________
lambda_18 (Lambda)              (None, 13, 13, 256)  0           leaky_re_lu_78[0][0]
__________________________________________________________________________________________________
lambda_19 (Lambda)              (None, 1, 512)       0           lambda_17[0][0]
__________________________________________________________________________________________________
reshape_4 (Reshape)             (None, 169, 256)     0           lambda_18[0][0]
__________________________________________________________________________________________________
dense_10 (Dense)                (None, 1, 256)       131328      lambda_19[0][0]
__________________________________________________________________________________________________
lambda_20 (Lambda)              (None, 256, 1)       0           dense_10[0][0]
__________________________________________________________________________________________________
dense_7 (Dense)                 (None, 169, 256)     65792       reshape_4[0][0]
__________________________________________________________________________________________________
dot_5 (Dot)                     (None, 169, 1)       0           dense_7[0][0]
                                                                 lambda_20[0][0]
__________________________________________________________________________________________________
dense_9 (Dense)                 (None, 169, 256)     65792       reshape_4[0][0]
__________________________________________________________________________________________________
lambda_21 (Lambda)              (None, 169, 1)       0           dot_5[0][0]
__________________________________________________________________________________________________
dot_6 (Dot)                     (None, 169, 1)       0           dense_9[0][0]
                                                                 lambda_20[0][0]
__________________________________________________________________________________________________
lambda_22 (Lambda)              (None, 1, 169)       0           lambda_21[0][0]
__________________________________________________________________________________________________
lambda_23 (Lambda)              (None, 169, 1)       0           dot_6[0][0]
__________________________________________________________________________________________________
activation_3 (Activation)       (None, 1, 169)       0           lambda_22[0][0]
__________________________________________________________________________________________________
dense_8 (Dense)                 (None, 169, 256)     65792       reshape_4[0][0]
__________________________________________________________________________________________________
activation_4 (Activation)       (None, 169, 1)       0           lambda_23[0][0]
__________________________________________________________________________________________________
dot_7 (Dot)                     (None, 1, 256)       0           activation_3[0][0]
                                                                 dense_8[0][0]
__________________________________________________________________________________________________
dot_8 (Dot)                     (None, 169, 256)     0           activation_4[0][0]
                                                                 dot_7[0][0]
__________________________________________________________________________________________________
global_average_pooling2d_1 (Glo (None, 512)          0           leaky_re_lu_67[0][0]
__________________________________________________________________________________________________
reshape_5 (Reshape)             (None, 13, 13, 256)  0           dot_8[0][0]
__________________________________________________________________________________________________
lambda_14 (Lambda)              (None, 1, 512)       0           global_average_pooling2d_1[0][0]
__________________________________________________________________________________________________
lambda_24 (Lambda)              (None, 13, 13, 512)  0           reshape_5[0][0]
__________________________________________________________________________________________________
lambda_15 (Lambda)              (None, 1, 1, 512)    0           lambda_14[0][0]
__________________________________________________________________________________________________
conv2d_69 (Conv2D)              (None, 1, 1, 256)    131072      lambda_15[0][0]
__________________________________________________________________________________________________
reshape_9 (Reshape)             (None, 2704, 512)    0           lambda_11[0][0]
__________________________________________________________________________________________________
reshape_10 (Reshape)            (None, 169, 512)     0           lambda_24[0][0]
__________________________________________________________________________________________________
batch_normalization_72 (BatchNo (None, 1, 1, 256)    1024        conv2d_69[0][0]
__________________________________________________________________________________________________
conv2d_65 (Conv2D)              (None, 52, 52, 256)  131072      leaky_re_lu_67[0][0]
__________________________________________________________________________________________________
conv2d_66 (Conv2D)              (None, 52, 52, 256)  1179648     leaky_re_lu_67[0][0]
__________________________________________________________________________________________________
conv2d_67 (Conv2D)              (None, 52, 52, 256)  1179648     leaky_re_lu_67[0][0]
__________________________________________________________________________________________________
conv2d_68 (Conv2D)              (None, 52, 52, 256)  1179648     leaky_re_lu_67[0][0]
__________________________________________________________________________________________________
conv2d_78 (Conv2D)              (None, 52, 52, 1)    513         lambda_11[0][0]
__________________________________________________________________________________________________
lambda_29 (Lambda)              (None, 2704, 512)    0           reshape_9[0][0]
__________________________________________________________________________________________________
lambda_30 (Lambda)              (None, 169, 512)     0           reshape_10[0][0]
__________________________________________________________________________________________________
add_26 (Add)                    (None, 13, 13, 512)  0           lambda_24[0][0]
                                                                 leaky_re_lu_78[0][0]
__________________________________________________________________________________________________
leaky_re_lu_72 (LeakyReLU)      (None, 1, 1, 256)    0           batch_normalization_72[0][0]
__________________________________________________________________________________________________
batch_normalization_68 (BatchNo (None, 52, 52, 256)  1024        conv2d_65[0][0]
__________________________________________________________________________________________________
batch_normalization_69 (BatchNo (None, 52, 52, 256)  1024        conv2d_66[0][0]
__________________________________________________________________________________________________
batch_normalization_70 (BatchNo (None, 52, 52, 256)  1024        conv2d_67[0][0]
__________________________________________________________________________________________________
batch_normalization_71 (BatchNo (None, 52, 52, 256)  1024        conv2d_68[0][0]
__________________________________________________________________________________________________
reshape_7 (Reshape)             (None, 2704)         0           conv2d_78[0][0]
__________________________________________________________________________________________________
dot_9 (Dot)                     (None, 2704, 169)    0           lambda_29[0][0]
                                                                 lambda_30[0][0]
__________________________________________________________________________________________________
conv2d_79 (Conv2D)              (None, 13, 13, 1)    513         lambda_24[0][0]
__________________________________________________________________________________________________
batch_normalization_79 (BatchNo (None, 13, 13, 512)  2048        add_26[0][0]
__________________________________________________________________________________________________
lambda_16 (Lambda)              (None, 52, 52, 256)  0           leaky_re_lu_72[0][0]
__________________________________________________________________________________________________
leaky_re_lu_68 (LeakyReLU)      (None, 52, 52, 256)  0           batch_normalization_68[0][0]
__________________________________________________________________________________________________
leaky_re_lu_69 (LeakyReLU)      (None, 52, 52, 256)  0           batch_normalization_69[0][0]
__________________________________________________________________________________________________
leaky_re_lu_70 (LeakyReLU)      (None, 52, 52, 256)  0           batch_normalization_70[0][0]
__________________________________________________________________________________________________
leaky_re_lu_71 (LeakyReLU)      (None, 52, 52, 256)  0           batch_normalization_71[0][0]
__________________________________________________________________________________________________
lambda_27 (Lambda)              (None, 2704)         0           reshape_7[0][0]
__________________________________________________________________________________________________
lambda_31 (Lambda)              (None, 2704, 169)    0           dot_9[0][0]
__________________________________________________________________________________________________
reshape_8 (Reshape)             (None, 169)          0           conv2d_79[0][0]
__________________________________________________________________________________________________
leaky_re_lu_79 (LeakyReLU)      (None, 13, 13, 512)  0           batch_normalization_79[0][0]
__________________________________________________________________________________________________
concatenate_3 (Concatenate)     (None, 52, 52, 1280) 0           lambda_16[0][0]
                                                                 leaky_re_lu_68[0][0]
                                                                 leaky_re_lu_69[0][0]
                                                                 leaky_re_lu_70[0][0]
                                                                 leaky_re_lu_71[0][0]
__________________________________________________________________________________________________
dot_10 (Dot)                    (None, 169)          0           lambda_27[0][0]
                                                                 lambda_31[0][0]
__________________________________________________________________________________________________
lambda_28 (Lambda)              (None, 169)          0           reshape_8[0][0]
__________________________________________________________________________________________________
conv2d_77 (Conv2D)              (None, 13, 13, 15)   7695        leaky_re_lu_79[0][0]
__________________________________________________________________________________________________
conv2d_70 (Conv2D)              (None, 52, 52, 1)    1281        concatenate_3[0][0]
__________________________________________________________________________________________________
dot_11 (Dot)                    (None, 1)            0           dot_10[0][0]
                                                                 lambda_28[0][0]
__________________________________________________________________________________________________
input_2 (InputLayer)            (None, 13, 13, 3, 5) 0
__________________________________________________________________________________________________
input_3 (InputLayer)            (None, 52, 52, 1)    0
__________________________________________________________________________________________________
yolo_loss (Lambda)              (None, 1)            0           conv2d_77[0][0]
                                                                 conv2d_70[0][0]
                                                                 dot_11[0][0]
                                                                 input_2[0][0]
                                                                 input_3[0][0]
==================================================================================================
…
